…
2024-12-27 17:02:24 - root - INFO: -           arch1 = [2000, 1024, 1024, 1024, 32]
2024-12-27 17:02:24 - root - INFO: -           arch2 = [2000, 1024, 1024, 1024, 32]
2024-12-27 17:02:24 - root - INFO: -           arch3 = [2000, 1024, 1024, 1024, 32]
2024-12-27 17:02:24 - root - INFO: -           activations = relu
2024-12-27 17:02:24 - root - INFO: -           batchnorm = True
2024-12-27 17:02:24 - root - INFO: - missing_rate = 0.0
2024-12-27 17:02:24 - root - INFO: - print_num = 50
2024-12-27 17:02:24 - root - INFO: - dataset = 20newsgroups
2024-12-27 17:02:24 - root - INFO: - Autoencoder(
  (_encoder): Sequential(
    (0): Linear(in_features=2000, out_features=1024, bias=True)
    (1): BatchNorm1d(1024, eps=1e-05, momentum=0.1, affine=True, track_running_stats=True)
    (2): ReLU()
    (3): Linear(in_features=1024, out_features=1024, bias=True)
    (4): BatchNorm1d(1024, eps=1e-05, momentum=0.1, affine=True, track_running_stats=True)
    (5): ReLU()
    (6): Linear(in_features=1024, out_features=1024, bias=True)
    (7): BatchNorm1d(1024, eps=1e-05, momentum=0.1, affine=True, track_running_stats=True)
    (8): ReLU()
    (9): Linear(in_features=1024, out_features=32, bias=True)
    (10): Softmax(dim=1)
  )
  (_decoder): Sequential(
    (0): Linear(in_features=32, out_features=1024, bias=True)
    (1): LayerNorm((1024,), eps=1e-05, elementwise_affine=True)
    (2): ReLU()
    (3): Linear(in_features=1024, out_features=1024, bias=True)
    (4): LayerNorm((1024,), eps=1e-05, elementwise_affine=True)
    (5): ReLU()
    (6): Linear(in_features=1024, out_features=1024, bias=True)
    (7): LayerNorm((1024,), eps=1e-05, elementwise_affine=True)
    (8): ReLU()
    (9): Linear(in_features=1024, out_features=2000, bias=True)
    (10): LayerNorm((2000,), eps=1e-05, elementwise_affine=True)
    (11): ReLU()
  )
)
2024-12-27 17:02:24 - root - INFO: - Generator(
  (model): Sequential(
    (0): Linear(in_features=32, out_features=256, bias=True)
    (1): ReLU()
    (2): Linear(in_features=256, out_features=32, bias=True)
  )
)
2024-12-27 17:02:24 - root - INFO: - Adam (
Parameter Group 0
    amsgrad: False
    betas: (0.9, 0.999)
    capturable: False
    differentiable: False
    eps: 1e-08
    foreach: None
    fused: None
    lr: 0.0001
    maximize: False
    weight_decay: 0
)
2024-12-27 17:02:40 - root - INFO: - [2;29mEpoch : 50/500 ===> Reconstruction loss = 0.7048===> Reconstruction loss = 0.4948 ===> Loss_icl = -1.4969e+02 ===> Los_ccl = 3.8300e+02 ===> Generator loss = -1.8871e+01 ===> Discriminator loss = 1.5975e+00 ===> All loss = 2.1618e+02[0m
…
