…
2024-12-25 21:25:22 - root - INFO: -           activations = relu
2024-12-25 21:25:22 - root - INFO: -           batchnorm = True
2024-12-25 21:25:22 - root - INFO: - Prediction={
2024-12-25 21:25:22 - root - INFO: -           arch1 = [128, 256, 128]
2024-12-25 21:25:22 - root - INFO: -           arch2 = [128, 256, 128]
2024-12-25 21:25:22 - root - INFO: -           arch3 = [128, 256, 128]
2024-12-25 21:25:22 - root - INFO: - missing_rate = 0.0
2024-12-25 21:25:22 - root - INFO: - print_num = 50
2024-12-25 21:25:22 - root - INFO: - dataset = Caltech101-20
2024-12-25 21:25:23 - root - INFO: - Autoencoder(
  (_encoder): Sequential(
    (0): Linear(in_features=1984, out_features=1024, bias=True)
    (1): BatchNorm1d(1024, eps=1e-05, momentum=0.1, affine=True, track_running_stats=True)
    (2): ReLU()
    (3): Linear(in_features=1024, out_features=1024, bias=True)
    (4): BatchNorm1d(1024, eps=1e-05, momentum=0.1, affine=True, track_running_stats=True)
    (5): ReLU()
    (6): Linear(in_features=1024, out_features=1024, bias=True)
    (7): BatchNorm1d(1024, eps=1e-05, momentum=0.1, affine=True, track_running_stats=True)
    (8): ReLU()
    (9): Linear(in_features=1024, out_features=128, bias=True)
    (10): Softmax(dim=1)
  )
  (_decoder): Sequential(
    (0): Linear(in_features=128, out_features=1024, bias=True)
    (1): LayerNorm((1024,), eps=1e-05, elementwise_affine=True)
    (2): ReLU()
    (3): Linear(in_features=1024, out_features=1024, bias=True)
    (4): LayerNorm((1024,), eps=1e-05, elementwise_affine=True)
    (5): ReLU()
    (6): Linear(in_features=1024, out_features=1024, bias=True)
    (7): LayerNorm((1024,), eps=1e-05, elementwise_affine=True)
    (8): ReLU()
    (9): Linear(in_features=1024, out_features=1984, bias=True)
    (10): LayerNorm((1984,), eps=1e-05, elementwise_affine=True)
    (11): ReLU()
  )
)
2024-12-25 21:25:23 - root - INFO: - Generator(
  (model): Sequential(
    (0): Linear(in_features=128, out_features=256, bias=True)
    (1): ReLU()
    (2): Linear(in_features=256, out_features=128, bias=True)
  )
)
2024-12-25 21:25:23 - root - INFO: - Adam (
Parameter Group 0
    amsgrad: False
    betas: (0.9, 0.999)
    capturable: False
    differentiable: False
    eps: 1e-08
    foreach: None
    fused: None
    lr: 0.0003
    maximize: False
    weight_decay: 0
)
2024-12-25 21:25:49 - root - INFO: - [2;29mEpoch : 50/1000 ===> Reconstruction loss = 0.4354===> Reconstruction loss = 0.0309 ===> Loss_icl = -2.4799e+02 ===> Los_ccl = 1.7712e+03 ===> Generator loss = -2.4558e+01 ===> Discriminator loss = 6.5560e+00 ===> All loss = 1.5053e+03[0m
…
