…
2024-12-27 15:12:05 - root - INFO: -           epoch = 500
2024-12-27 15:12:05 - root - INFO: -           alpha = 10
2024-12-27 15:12:05 - root - INFO: -           lambda2 = 0.1
2024-12-27 15:12:05 - root - INFO: -           lambda1 = 0.1
2024-12-27 15:12:05 - root - INFO: -           lambda3 = 1.0
2024-12-27 15:12:05 - root - INFO: -           lambda4 = 1.0
2024-12-27 15:12:05 - root - INFO: - seed = 2
2024-12-27 15:12:05 - root - INFO: - missing_rate = 0.0
2024-12-27 15:12:05 - root - INFO: - print_num = 50
2024-12-27 15:12:05 - root - INFO: - dataset = LandUse_21
2024-12-27 15:12:05 - root - INFO: - Autoencoder(
  (_encoder): Sequential(
    (0): Linear(in_features=59, out_features=1024, bias=True)
    (1): BatchNorm1d(1024, eps=1e-05, momentum=0.1, affine=True, track_running_stats=True)
    (2): ReLU()
    (3): Linear(in_features=1024, out_features=1024, bias=True)
    (4): BatchNorm1d(1024, eps=1e-05, momentum=0.1, affine=True, track_running_stats=True)
    (5): ReLU()
    (6): Linear(in_features=1024, out_features=1024, bias=True)
    (7): BatchNorm1d(1024, eps=1e-05, momentum=0.1, affine=True, track_running_stats=True)
    (8): ReLU()
    (9): Linear(in_features=1024, out_features=40, bias=True)
    (10): Softmax(dim=1)
  )
  (_decoder): Sequential(
    (0): Linear(in_features=40, out_features=1024, bias=True)
    (1): LayerNorm((1024,), eps=1e-05, elementwise_affine=True)
    (2): ReLU()
    (3): Linear(in_features=1024, out_features=1024, bias=True)
    (4): LayerNorm((1024,), eps=1e-05, elementwise_affine=True)
    (5): ReLU()
    (6): Linear(in_features=1024, out_features=1024, bias=True)
    (7): LayerNorm((1024,), eps=1e-05, elementwise_affine=True)
    (8): ReLU()
    (9): Linear(in_features=1024, out_features=59, bias=True)
    (10): LayerNorm((59,), eps=1e-05, elementwise_affine=True)
    (11): ReLU()
  )
)
2024-12-27 15:12:05 - root - INFO: - Generator(
  (model): Sequential(
    (0): Linear(in_features=40, out_features=256, bias=True)
    (1): ReLU()
    (2): Linear(in_features=256, out_features=40, bias=True)
  )
)
2024-12-27 15:12:05 - root - INFO: - Adam (
Parameter Group 0
    amsgrad: False
    betas: (0.9, 0.999)
    capturable: False
    differentiable: False
    eps: 1e-08
    foreach: None
    fused: None
    lr: 0.0001
    maximize: False
    weight_decay: 0
)
2024-12-27 15:12:20 - root - INFO: - [2;29mEpoch : 50/500 ===> Reconstruction loss = 4.8948===> Reconstruction loss = 6.1645 ===> Loss_icl = -1.5935e+02 ===> Los_ccl = 1.3820e+03 ===> Generator loss = -1.9242e+01 ===> Discriminator loss = 2.1840e+00 ===> All loss = 1.2071e+03[0m
…
