…
2024-12-26 19:43:17 - root - INFO: -           epoch = 500
2024-12-26 19:43:17 - root - INFO: -           alpha = 10
2024-12-26 19:43:17 - root - INFO: -           lambda2 = 0.1
2024-12-26 19:43:17 - root - INFO: -           lambda1 = 0.1
2024-12-26 19:43:17 - root - INFO: -           lambda3 = 1.0
2024-12-26 19:43:17 - root - INFO: -           lambda4 = 1.0
2024-12-26 19:43:17 - root - INFO: - seed = 8
2024-12-26 19:43:17 - root - INFO: - missing_rate = 0.0
2024-12-26 19:43:17 - root - INFO: - print_num = 50
2024-12-26 19:43:17 - root - INFO: - dataset = Scene_15
2024-12-26 19:43:17 - root - INFO: - Autoencoder(
  (_encoder): Sequential(
    (0): Linear(in_features=20, out_features=1024, bias=True)
    (1): BatchNorm1d(1024, eps=1e-05, momentum=0.1, affine=True, track_running_stats=True)
    (2): ReLU()
    (3): Linear(in_features=1024, out_features=1024, bias=True)
    (4): BatchNorm1d(1024, eps=1e-05, momentum=0.1, affine=True, track_running_stats=True)
    (5): ReLU()
    (6): Linear(in_features=1024, out_features=1024, bias=True)
    (7): BatchNorm1d(1024, eps=1e-05, momentum=0.1, affine=True, track_running_stats=True)
    (8): ReLU()
    (9): Linear(in_features=1024, out_features=128, bias=True)
    (10): Softmax(dim=1)
  )
  (_decoder): Sequential(
    (0): Linear(in_features=128, out_features=1024, bias=True)
    (1): LayerNorm((1024,), eps=1e-05, elementwise_affine=True)
    (2): ReLU()
    (3): Linear(in_features=1024, out_features=1024, bias=True)
    (4): LayerNorm((1024,), eps=1e-05, elementwise_affine=True)
    (5): ReLU()
    (6): Linear(in_features=1024, out_features=1024, bias=True)
    (7): LayerNorm((1024,), eps=1e-05, elementwise_affine=True)
    (8): ReLU()
    (9): Linear(in_features=1024, out_features=20, bias=True)
    (10): LayerNorm((20,), eps=1e-05, elementwise_affine=True)
    (11): ReLU()
  )
)
2024-12-26 19:43:17 - root - INFO: - Generator(
  (model): Sequential(
    (0): Linear(in_features=128, out_features=256, bias=True)
    (1): ReLU()
    (2): Linear(in_features=256, out_features=128, bias=True)
  )
)
2024-12-26 19:43:17 - root - INFO: - Adam (
Parameter Group 0
    amsgrad: False
    betas: (0.9, 0.999)
    capturable: False
    differentiable: False
    eps: 1e-08
    foreach: None
    fused: None
    lr: 0.001
    maximize: False
    weight_decay: 0
)
2024-12-26 19:43:50 - root - INFO: - [2;29mEpoch : 50/500 ===> Reconstruction loss = 3.4554===> Reconstruction loss = 5.1120 ===> Loss_icl = -2.4450e+02 ===> Los_ccl = 3.0451e+03 ===> Generator loss = -2.4621e+01 ===> Discriminator loss = 6.3444e+00 ===> All loss = 2.7837e+03[0m
…
